model.pt (torch_old, 64748 bytes, 34 tensors)

ffnn.fc1.weight f4 [32, 29]
0	0x3db164d1	0.08661807
1	0xbdaf2110	-0.08551228
2	0xbd9d84d6	-0.07691352
3	0xbdc9eb70	-0.09859359
4	0xbdf0c35b	-0.11756011
5	0x3d0dd458	0.034626335
6	0xbc8d1f83	-0.01722694
7	0xbd771c59	-0.06032977
8	0x3d5958f0	0.053063333
9	0xbd082544	-0.033238664
10	0x3d75ccdb	0.06000982
11	0xbda050bc	-0.07827899
12	0xbd92c088	-0.07165629
13	0xbc3976e4	-0.01131985
14	0x3d95a1ab	0.07306226
15	0xbc0ba899	-0.0085240835
16	0x3cd17c01	0.025571825
17	0x3d3ce91e	0.046120755
18	0x3e50e84a	0.20401111
19	0x3d2b88de	0.041878574
20	0xbdb83011	-0.08993543
21	0xbd2e0303	-0.04248334
22	0x3d8ebaaf	0.06969201
23	0x3ce61043	0.028083926
24	0xbddb27cf	-0.10700952
25	0x3d6d157d	0.05788182
26	0x3df1e9a2	0.1181214
27	0x3d412bfe	0.047161095
28	0xbde48c38	-0.11159557
29	0x3e303786	0.1720868
30	0x3d6356da	0.05550275
31	0x3e72e504	0.23720175
32	0x3e0b4097	0.13598858
33	0x3b74346e	0.0037262696
34	0xbe13fa0d	-0.14450856
35	0xbe25a1e6	-0.1617504
36	0x3e96eb8f	0.29476592
37	0xbdc1d9cd	-0.0946537
38	0xbb96a92d	-0.004597804
39	0xbcb78425	-0.022401879
40	0x3db7b1e6	0.08969478
41	0x3c311f92	0.01081075
42	0x3e0e2323	0.13880591
43	0xbdd5853b	-0.10425802
44	0xbe3ebe03	-0.18627171
45	0x3d86d5e8	0.06583768
46	0xbda79ceb	-0.081842266
47	0xbd238ff9	-0.039932225
48	0xbcdb86d6	-0.026797693
49	0xbba2ea3c	-0.0049717706
50	0xbe220881	-0.15823556
51	0xbda4e7ab	-0.08052
52	0x3e4ade08	0.1981126
53	0x3ba950c0	0.005167097
54	0x3deb7ad9	0.11498041
55	0x3d99c273	0.07507791
56	0xbcf20194	-0.029541768
57	0xbdc221b3	-0.09479084
58	0x3e33d178	0.17560375
59	0x3c945037	0.018104656
60	0xbd807076	-0.0627145
61	0xbd5e5d3d	-0.054288138
62	0x3cda3bf9	0.026639925
63	0x3d7f5691	0.062338416
64	0x3cd372b3	0.025811529
65	0xbdd04213	-0.10168853
66	0xbc4123d2	-0.011788325
67	0x3d7a0793	0.06104238
68	0xbd582094	-0.052765444
69	0xbe0840c1	-0.13305952
70	0x3c815aa4	0.015790291
71	0xbcf8dcd8	-0.030378744
72	0x3dc9247d	0.09821413
73	0x3d8776ad	0.066144325
74	0x3cf5e673	0.030017113
75	0x3d2ea7d9	0.04264054
76	0x3e090d72	0.13384035
77	0x3d973b4b	0.07384356
78	0xbe0b4c57	-0.1360334
79	0x3deeb9ce	0.11656533
80	0x3b88c2e2	0.0041736225
81	0xbda270b2	-0.07931651
82	0x3c1f228f	0.009712829
83	0xb8d80855	-0.000103012346
84	0x3dfc9777	0.12333577
85	0xbd759889	-0.059959922
86	0xbd971bcd	-0.073783495
87	0x3deca936	0.11555712
88	0xbcf16032	-0.029464815
89	0x3d4cb78f	0.049979743
90	0xbb0ed71c	-0.0021795696
91	0xbda9521f	-0.082676165
92	0xbe059e6e	-0.13048717
93	0x3d823b6d	0.06358991
94	0xbe05b934	-0.1305893
95	0xbdc37553	-0.09543862
96	0xbaf6ead5	-0.0018838296
97	0x3c868f2d	0.016425693
98	0xbcd7dcd2	-0.026350413
99	0xbd5ca1ef	-0.05386537
100	0x3d8eab44	0.0696626
101	0x3d17ff6a	0.037108816
102	0x3e058b86	0.13041505
103	0x3d21f056	0.039535843
104	0xbd6a328c	-0.05717711
105	0xbbe81dea	-0.007083644
106	0x3e1693d6	0.14704832
107	0xbcde2a12	-0.02711967
108	0x3d6e5cb2	0.05819387
109	0xbcaa0ebe	-0.020758983
110	0x3da4c7aa	0.080458954
111	0x3d453b76	0.04815241
112	0x3e2eb2e7	0.17060433
113	0xbd9404ca	-0.07227476
114	0x3d04f4a1	0.03245986
115	0x3dbe9ffd	0.09307859
116	0x3e0f20c7	0.13977347
117	0x3e03a20d	0.12854786
118	0xbe3342f7	-0.17506014
119	0xbd22b9e5	-0.039728064
120	0xbdead294	-0.11465946
121	0x3e7e0d15	0.24809678
122	0x3d445a00	0.047937393
123	0xbdbf5731	-0.09342802
124	0x3dfb3ae9	0.122670956
125	0xbd0a266c	-0.03372805
126	0xbe51e184	-0.20496184
127	0xbc9357ca	-0.017986197
128	0x3b9fda40	0.0048783123
129	0xbd8920d4	-0.066957146
130	0xbbeac767	-0.007164884
131	0x3d273261	0.04081953
132	0x3db764a7	0.08954745
133	0x3cc74802	0.024326328
134	0x3bc02c75	0.0058646747
135	0x3d65dfa6	0.05612149
136	0x3d973a41	0.07384158
137	0x3bc77fce	0.0060882336
138	0xbe057147	-0.13031493
139	0xbdf4f54f	-0.119608514
140	0xbd63ce86	-0.055616878
141	0xbd818fb1	-0.06326235
142	0xbe72fa29	-0.23728241
143	0x3d7e2bcf	0.062053498
144	0x3d17bffb	0.03704832
145	0xbda2ed04	-0.079553634
146	0x3d74e529	0.059788857
147	0x3ddf235f	0.108954184
148	0x3e265b80	0.16245842
149	0x3dc7efaa	0.09762509
150	0x3d7c9206	0.061662696
151	0x3bd2faad	0.0064385743
152	0x3d8886cf	0.06666338
153	0xbdff7524	-0.12473515
154	0xbdd7534c	-0.105139345
155	0xbdc0837c	-0.09400079
156	0xbbbc9567	-0.005755115
157	0xbb6a4cbf	-0.003575131
158	0x3c982579	0.018572556
159	0xbdaa21d7	-0.08307236
160	0xbe210aee	-0.15726826
161	0xbc587d73	-0.013213503
162	0x3cecdfad	0.02891525
163	0xbc656a6d	-0.014002425
164	0xbda6859a	-0.08130951
165	0x3d9a341d	0.07529471
166	0xbd777cee	-0.060421877
167	0xbd8795d8	-0.06620377
168	0xbe102a03	-0.14078526
169	0xbc9b3f20	-0.018950999
170	0xbd6f276e	-0.058387212
171	0x3ca919ef	0.020642249
172	0x3d3f839a	0.046756364
173	0x3cc1ccaa	0.023657162
174	0x3e442f13	0.19158582
175	0x3e0e8ba8	0.13920462
176	0x3ddf907b	0.10916229
177	0x3e7579a5	0.23972185
178	0x3d460379	0.048343156
179	0x3e5cde8b	0.21569268
180	0xbd8712c5	-0.06595377
181	0x3dc1bfd8	0.094604194
182	0xbe5ee8d7	-0.21768509
183	0x3d2951eb	0.04133789
184	0xbe3512bb	-0.17682926
185	0x3e429e61	0.1900573
186	0xbbbfba5d	-0.0058510737
187	0xbe2eeccf	-0.17082523
188	0xbd83553d	-0.06412742
189	0xbe397d94	-0.1811431
190	0x3db72595	0.08942715
191	0xbd2e6719	-0.04257879
192	0xbe13cfde	-0.14434764
193	0xbc353f16	-0.011062404
194	0x3dceabcc	0.100913614
195	0xbe19bdb6	-0.15013775
196	0x3d82768f	0.063702695
197	0x3e3edd68	0.18639147
198	0x3e1fdf29	0.15612473
199	0xbe3e2689	-0.18569387
200	0xbd34da2a	-0.04415337
201	0xbd5025a3	-0.050817143
202	0x3e1ac6c0	0.1511488
203	0xbe578e62	-0.21050408
204	0x3dfd73f9	0.12375636
205	0x3d250694	0.040289477
206	0x3ca357de	0.01993936
207	0xbd4baf2a	-0.049727596
208	0x3e41217c	0.1886043
209	0x3d7422f3	0.059603643
210	0x3de84e62	0.11343075
211	0x3dc1c084	0.094605476
212	0xbe2fca5c	-0.17167038
213	0x3e3a8cef	0.18217824
214	0x3d5c9fb6	0.05386325
215	0x3de122c0	0.10992956
216	0x3df1d849	0.11808831
217	0xbe21dfcb	-0.15808026
218	0xbd8bdee7	-0.068296246
219	0x3d5bf58a	0.05370096
220	0xbe242d3d	-0.16032882
221	0x3e0678b6	0.13131985
222	0xbe368548	-0.1782428
223	0xbe0176c0	-0.12642956
224	0x3dac80da	0.08423014
225	0xbdc904ff	-0.09815406
226	0xbe3a5669	-0.18197025
227	0x3d878c18	0.06618518
228	0x3dec8bd0	0.115501046
229	0x3deb8cfa	0.115014985
230	0xbd9d3b34	-0.07677308
231	0xbe2004c3	-0.15626816
232	0x3e0525b2	0.13002661
233	0xbda5bc1b	-0.08092519
234	0xbdf3123a	-0.11868711
235	0xbdd7bdc5	-0.105342425
236	0xbdd24d87	-0.102686934
237	0xbd47faa6	-0.04882302
238	0x3dfb75d3	0.122783326
239	0xbe39bec4	-0.18139178
240	0xbd4e1e17	-0.050321665
241	0xbbef6d89	-0.007306759
242	0x3dda3ed6	0.10656516
243	0xbccfa843	-0.025348788
244	0xbdcb63e3	-0.09931161
245	0x3d2f7982	0.04284049
246	0x3d4d946c	0.050190374
247	0x3c3c4f2e	0.011493487
248	0x3bb24bce	0.0054411655
249	0x3de4037a	0.111334756
250	0x3e7eec5b	0.2489485
251	0x3ae5e917	0.001754078
252	0xbd7a1f81	-0.0610652
253	0x3c86f981	0.016476395
254	0x3de65faa	0.11248715
255	0xbc78f7f1	-0.015195833

ffnn.fc1.bias f4 [32]
0	0xbe4e8cf5	-0.20170958
1	0x3e8a5974	0.27021372
2	0xbe3c5c1b	-0.1839451
3	0xbea68f2c	-0.32531106
4	0x3de05b6e	0.10954939
5	0x3ead6f35	0.33873907
6	0xbda0d827	-0.07853728
7	0x3e228a08	0.15872967
8	0xbafad0b0	-0.001913568
9	0x3d82e953	0.06392159
10	0x3d3a6286	0.045504116
11	0x3e401ded	0.18761416
12	0xbe623a30	-0.2209251
13	0x3e82e552	0.25565583
14	0x3e997f31	0.29979852
15	0x3e5a3f4b	0.21313207
16	0x3e837268	0.25673223
17	0x3bf9fdcc	0.007629132
18	0xbea5ff38	-0.3242128
19	0xbe58588e	-0.21127531
20	0xbe96749b	-0.29385838
21	0x3c3fdac2	0.011709871
22	0x3e9e4900	0.3091507
23	0xbdff20d0	-0.1245743
24	0x3d9411b8	0.07229942
25	0x3e1662be	0.14686105
26	0xbe3b1eb2	-0.18273428
27	0xbe881b2c	-0.2658323
28	0x3ea62850	0.3245263
29	0x3ea65776	0.32488602
30	0x3ea3d7fd	0.32000723
31	0xbea1f25f	-0.31630227

ffnn.norm1.weight f4 [32]
0	0x3f8b0970	1.0862255
1	0x3f83ea15	1.0305811
2	0x3f811ab4	1.0086274
3	0x3f7dba28	0.99112177
4	0x3f78e86f	0.97229666
5	0x3f871b94	1.0555291
6	0x3f808830	1.0041561
7	0x3f809085	1.0044104
8	0x3f76a5df	0.9634685
9	0x3f7b48d8	0.98158026
10	0x3f814422	1.0098917
11	0x3f745c21	0.9545308
12	0x3f7c1955	0.98476154
13	0x3f8260a9	1.0185748
14	0x3f88f5ae	1.0699975
15	0x3f696ed6	0.9118475
16	0x3f82b4f5	1.0211474
17	0x3f770ef1	0.96507174
18	0x3f84fd8b	1.0389875
19	0x3f860efe	1.0473325
20	0x3f7fbcc7	0.99897426
21	0x3f857842	1.0427325
22	0x3f866ed4	1.0502572
23	0x3f7c94b5	0.9866441
24	0x3f7c7136	0.98610246
25	0x3f66ff47	0.9023327
26	0x3f7e1b68	0.9926057
27	0x3f7da852	0.9908496
28	0x3f85a059	1.0439559
29	0x3f83c329	1.0293933
30	0x3f8b31e9	1.0874606
31	0x3f88f847	1.0700768

ffnn.norm1.bias f4 [32]
0	0xbcd91a2d	-0.02650174
1	0xbd1960ce	-0.037445836
2	0x3c543444	0.012951914
3	0x3cab13f2	0.020883534
4	0x3d9dad0e	0.07699023
5	0xbbf9b3f8	-0.007620331
6	0x3c0932a0	0.008373886
7	0xbc91f97f	-0.017819164
8	0x3da6cd0e	0.0814458
9	0xbbefe528	-0.0073210187
10	0xbd43f24b	-0.04783849
11	0xbd333696	-0.04375323
12	0xbd2358f8	-0.03987977
13	0x3d1c62d6	0.038180195
14	0x3b9729f4	0.0046131555
15	0xbd2c2b91	-0.042033736
16	0xbcaf07ea	-0.021366078
17	0xbc7739c5	-0.015089457
18	0x3ce7de2e	0.028304186
19	0xbc8172c5	-0.015801797
20	0x3d442563	0.047887217
21	0xbcd7fef4	-0.026366688
22	0x3c6ebeab	0.014571826
23	0x3d10840f	0.03528219
24	0xbd4478aa	-0.047966637
25	0x3cf37f64	0.02972383
26	0xbcd7277d	-0.026263947
27	0x3d178aaa	0.036997475
28	0x3d49048f	0.049076613
29	0xbc3fc0f1	-0.011703716
30	0x3d2a7b34	0.041621402
31	0x3a89508d	0.0010476277

ffnn.fc2.weight f4 [32, 32]
0	0xbd349f12	-0.044097014
1	0xbe2a9b15	-0.16660722
2	0xbdd109e1	-0.102069624
3	0xbe89cefe	-0.26915735
4	0x3e404068	0.18774569
5	0x3dab782c	0.0837253
6	0x3ceb7296	0.028741162
7	0xbcc231b7	-0.023705347
8	0x3d969746	0.07353072
9	0xbd85d4b2	-0.06534709
10	0x3df22336	0.11823122
11	0x3d9e3340	0.07724619
12	0xbd037ddc	-0.03210245
13	0xbe6acf38	-0.2293061
14	0xbd7755fc	-0.060384735
15	0xbe5218fc	-0.20517343
16	0x3e03295a	0.12808743
17	0x3c415753	0.011800605
18	0x3d30a8fd	0.04312991
19	0x3e4c60b7	0.19958769
20	0xbdd60e70	-0.104519725
21	0x3decbfdf	0.11560034
22	0x3db3dc06	0.087822005
23	0x3e60adf3	0.21941356
24	0xbbb40edb	-0.005494935
25	0xbdb93379	-0.09043021
26	0xbdb247f8	-0.08705133
27	0x3e316108	0.1732217
28	0xbe0b77da	-0.13619938
29	0x3ce14691	0.027499469
30	0xbcde1d5d	-0.02711361
31	0x3d980737	0.07423251
32	0x3e5bc457	0.21461616
33	0xbe55dd4f	-0.20885204
34	0xbd9ba809	-0.076004095
35	0x3e3619d5	0.17783292
36	0x3da91854	0.08256593
37	0xbea40f36	-0.32042855
38	0x3cd9535e	0.02652901
39	0x3c95610e	0.018234756
40	0xbd57b686	-0.052664302
41	0xbd771be7	-0.060329344
42	0xbd955b1e	-0.0729277
43	0xbd6974e0	-0.056996226
44	0xbd0f4cf4	-0.034985498
45	0xbcc35971	-0.02384636
46	0x3c1417e5	0.0090389
47	0xbe5c1e4c	-0.21495932
48	0xbdf640c6	-0.12024073
49	0xbe15ed11	-0.14641215
50	0x3ea705e7	0.3262169
51	0x3e4b9a0c	0.19882983
52	0x3e4cffee	0.20019504
53	0x3da3515e	0.07974504
54	0xbddfd9e4	-0.10930231
55	0x3ce2b094	0.02767209
56	0x3dd1924b	0.10232981
57	0xbdd98172	-0.10620393
58	0xbd0d69bb	-0.03452466
59	0x3d5e7a41	0.05431581
60	0xbe399672	-0.18123797
61	0xbd2ba8dd	-0.041909087
62	0xbe55cad8	-0.2087816
63	0xbd573b34	-0.052546695
64	0x3d91faaa	0.071278885
65	0x3d12bc77	0.035824265
66	0x3dbb6e35	0.0915188
67	0xbdb59617	-0.08866518
68	0xbe6ad4bd	-0.22932716
69	0x3d61fc54	0.05517228
70	0xbd6de737	-0.05808183
71	0xbcff3f4f	-0.031158118
72	0x3e1c7192	0.15277699
73	0xbc97ab15	-0.018514195
74	0x3def6045	0.11688284
75	0xbca5cf27	-0.02024038
76	0xbe155eb0	-0.14586902
77	0xbdbad5de	-0.09122823
78	0xbe2f8c7f	-0.17143439
79	0xbb197470	-0.002341535
80	0xbe49448d	-0.19655056
81	0x3e23e3a8	0.16004813
82	0xbd1089d1	-0.035287682
83	0x3e6a31df	0.22870587
84	0xbb937a15	-0.0045006373
85	0x3dc5a754	0.09651056
86	0x3dadcd0b	0.084863745
87	0x3d610ef6	0.05494591
88	0x3ac9b7b0	0.0015389826
89	0xbc806118	-0.015671298
90	0xbd7bb5dc	-0.06145273
91	0xbe32f8c1	-0.17477705
92	0x3da9aa2d	0.082844116
93	0x3d686712	0.05673892
94	0x3d687a2a	0.05675713
95	0x3d7700ea	0.060303606
96	0x3e0631bf	0.13104914
97	0xbdfd008d	-0.12353621
98	0xbe158c15	-0.14604218
99	0x3d974cff	0.07387733
100	0x3cd713cc	0.026254557
101	0x3d11a49d	0.035557378
102	0xbde3a692	-0.11115755
103	0x3ce06b20	0.027394831
104	0xbdb80f97	-0.089873485
105	0xbdb5fc69	-0.08886034
106	0xbccad26c	-0.02475854
107	0xbdc3bd06	-0.09557538
108	0xbe434cec	-0.19072312
109	0xbcf7f3e5	-0.030267665
110	0x3e08daef	0.13364767
111	0x3e776957	0.24161278
112	0xbdd66345	-0.10468153
113	0xbd886dc1	-0.06661559
114	0xbd26535d	-0.040606845
115	0xbdaa25db	-0.083080016
116	0xbd03f562	-0.032216437
117	0x3e361f8f	0.17785476
118	0xbe341d2c	-0.17589253
119	0x3b8c52f3	0.0042823493
120	0x3e3ac3ad	0.18238707
121	0xbb580c12	-0.003296618
122	0x3e4f01a7	0.20215474
123	0x3da6988d	0.081345655
124	0x3e0acf16	0.1355556
125	0xbb6ba537	-0.003595663
126	0xbe10e789	-0.14150824
127	0xbd41ead3	-0.047343086
128	0xbddec580	-0.10877514
129	0x3e411429	0.18855347
130	0x3dcc8f73	0.09988298
131	0x3e99732b	0.2997068
132	0xbdd895df	-0.10575461
133	0xbde0c7d1	-0.10975612
134	0x3e610dfc	0.21977991
135	0xbcbe2200	-0.023209572
136	0xbe224e06	-0.15850076
137	0x3dd3b82b	0.103378616
138	0x3da4bdd7	0.080440216
139	0x3d92fa99	0.07176704
140	0xbae194ca	-0.001721048
141	0x3db1db07	0.08684354
142	0xbe8395fd	-0.2570037
143	0xbbc6fb1a	-0.006072414
144	0xbe111c7e	-0.14171025
145	0x3dfd43ab	0.12366422
146	0x3c80241f	0.015642224
147	0x3cb18054	0.021667637
148	0x3e084963	0.13309245
149	0xbbc9496f	-0.006142787
150	0xbe81c937	-0.25348827
151	0xbd0574da	-0.03258214
152	0xbc69bb3b	-0.014265831
153	0xbc8a2329	-0.016862469
154	0x3da51366	0.080603406
155	0x3e083c7f	0.13304327
156	0xbdb9b0d4	-0.090669304
157	0xbe28eea9	-0.16497292
158	0xbe6378da	-0.2221407
159	0xbd7fb784	-0.062430874
160	0x3d85df9c	0.06536791
161	0x3e34508f	0.17608856
162	0x3db38e7f	0.08767413
163	0x3e22748f	0.15864776
164	0x3b6cbedb	0.00361245
165	0x3cc0823b	0.023499599
166	0x3caf8724	0.021426745
167	0xbc826c3f	-0.015920756
168	0xbe1f07f1	-0.15530373
169	0x3d8987bb	0.06715342
170	0x3e18dc9f	0.1492791
171	0x3dd59133	0.10428085
172	0xbe1120fe	-0.14172742
173	0x3e481a0e	0.19541189
174	0xbea05063	-0.3131133
175	0xbc317e27	-0.0108333
176	0x3dbcfac0	0.09227514
177	0x3e36a709	0.17837156
178	0xbd1b84c3	-0.03796841
179	0x3de140d7	0.10998695
180	0xbdace2ab	-0.08441671
181	0x3e66e3f5	0.22547896
182	0xbd392314	-0.04519947
183	0xbd4f420b	-0.050600093
184	0xba1fe5d1	-0.0006099614
185	0xbce1e56e	-0.02757522
186	0xbc5a6fd7	-0.013332329
187	0xbd82ae1a	-0.063808635
188	0xbc0c481b	-0.008562113
189	0xbe56ae99	-0.20965041
190	0xbe870845	-0.26373497
191	0xbcfe169f	-0.031016646
192	0xbdca3255	-0.09872881
193	0xbe1505d2	-0.14553002
194	0xbc8d06c9	-0.01721515
195	0xbdccff3f	-0.10009622
196	0x3dcf3599	0.10117645
197	0xbcd94cb0	-0.026525825
198	0xbe204ebc	-0.15655035
199	0xbd3ebdad	-0.046567608
200	0xbdd85523	-0.105631135
201	0x3d6f3826	0.058403157
202	0x3e3a7294	0.1820777
203	0xbdf3ff84	-0.1191397
204	0x3d2213ec	0.03956978
205	0x3db89081	0.09011937
206	0xbe0faaa5	-0.1402994
207	0x3d86df2d	0.06585536
208	0xbe59ffaa	-0.21288934
209	0xbe0a425d	-0.13501878
210	0x3a6b9909	0.00089873426
211	0xbdc9a776	-0.09846394
212	0x3d80533a	0.06265874
213	0x3a0f142c	0.0005458023
214	0x3d651ac5	0.055933733
215	0xbb610c60	-0.0034339651
216	0x3d1f96da	0.038962223
217	0x3e27567e	0.16341588
218	0xbc0d3bd0	-0.008620217
219	0xbe2b5a30	-0.16733623
220	0xbe5a0dad	-0.2129428
221	0x3e39d59b	0.1814789
222	0x3dd1b798	0.10240096
223	0x3d38d2a7	0.04512277
224	0xbd1b8c95	-0.037975866
225	0x3d6fb131	0.058518592
226	0x3e122e5b	0.14275496
227	0x3dada5e1	0.084789045
228	0x3e051e74	0.12999898
229	0x3e0681f3	0.13135509
230	0x3e833505	0.25626388
231	0x3df3353d	0.11875389
232	0x3d84c2da	0.064824775
233	0xbdea125f	-0.11429285
234	0x3d13e2fa	0.036105134
235	0x3c63fb83	0.013914946
236	0x3cf6ffe0	0.030151308
237	0x3d92e796	0.07173078
238	0xbe525234	-0.2053917
239	0x3e0867d2	0.13320854
240	0x3e0f9f20	0.14025545
241	0x3d6ef275	0.058336694
242	0x3d764ade	0.060129993
243	0x3e560ed4	0.20904094
244	0x3d5aefe7	0.053451445
245	0xbde05dae	-0.10955368
246	0xbe34acdd	-0.17644067
247	0xbd86631e	-0.06561874
248	0xbe205f70	-0.15661407
249	0xbd3ed4db	-0.046589714
250	0x3dc8fea7	0.09814196
251	0xbd26bb51	-0.040705983
252	0x3ba6d43d	0.0050912187
253	0x3d188dbd	0.037244547
254	0x3d7dc523	0.061955582
255	0xbc893002	-0.016746525

ffnn.fc2.bias f4 [32]
0	0xbe3227b5	-0.1739796
1	0xbe402e21	-0.18767597
2	0x3d2527c4	0.040321127
3	0x3dd51386	0.104041144
4	0x3e35bc85	0.17747696
5	0x3e16142a	0.1465613
6	0xbd946bcb	-0.072471224
7	0x3e1f7258	0.15570962
8	0x3d24aa3c	0.04020141
9	0xbd16a51e	-0.03677856
10	0xbde7e934	-0.11323777
11	0x3d458643	0.048223745
12	0xbc45f078	-0.012081258
13	0x3d659101	0.05604649
14	0xbde01298	-0.109410465
15	0xbe12fb90	-0.14353776
16	0xbc979b72	-0.01850674
17	0xbd0b9d0d	-0.034085322
18	0x3dc6b291	0.097020276
19	0x3da9110b	0.08255204
20	0xbd903565	-0.07041434
21	0x3e0a3452	0.13496521
22	0xbdef544a	-0.11685999
23	0xbc927dee	-0.017882314
24	0xbdb772a0	-0.0895741
25	0xbcc1de7a	-0.023665655
26	0x3d8e6ba4	0.069541246
27	0xbe550bc7	-0.20805274
28	0xbd321581	-0.04347754
29	0xbe72d390	-0.23713517
30	0xbdc0912b	-0.094026886
31	0xbdea7fff	-0.114501946

ffnn.fc3.weight f4 [32, 32]
0	0xbdb689ce	-0.08913003
1	0xbc65570c	-0.013997804
2	0x3bc360ca	0.005962466
3	0xbe048e7b	-0.12944977
4	0x3e538998	0.20657957
5	0xbc7f51f9	-0.015583509
6	0xbdc33cff	-0.095331185
7	0x3e7859e0	0.24253035
8	0x3d8e7d0f	0.06957447
9	0x3d1041b9	0.035218928
10	0xbd5b69bf	-0.053567644
11	0xbdb89be6	-0.0901411
12	0xbc93a0a9	-0.018020945
13	0x3d802c67	0.06258469
14	0x3cd0c248	0.025483266
15	0x3e4fc95b	0.20291655
16	0xbe0c77ca	-0.13717571
17	0xbc9090cf	-0.017647175
18	0x3e25b1fc	0.16181177
19	0x3dfa6843	0.122269176
20	0xbba1b271	-0.004934602
21	0x3e22576f	0.15853666
22	0x3df9d39a	0.12198563
23	0xbdfa794b	-0.12230166
24	0xbba7edc9	-0.0051247817
25	0x3c54e9b7	0.012995175
26	0xbe00a327	-0.12562238
27	0xbd9abd72	-0.07555665
28	0x3de6ed63	0.11275747
29	0xbe4921b1	-0.19641759
30	0xbde2c183	-0.11072066
31	0xbdd8d95f	-0.10588335
32	0x3d43d89a	0.04781399
33	0xbd8ac03e	-0.067749485
34	0x3e413bc9	0.18870462
35	0x3e016f43	0.12640099
36	0xbe864b8c	-0.26229513
37	0xbe6312bb	-0.22175114
38	0x3dfef19d	0.12448428
39	0xbe802808	-0.2503054
40	0x3d75028d	0.059816886
41	0xbd1b59de	-0.0379275
42	0xbc96853c	-0.018374078
43	0x3e04a3a7	0.12953053
44	0xbe86e8f9	-0.2634962
45	0xbde48e2b	-0.11159929
46	0xbdfa9e1e	-0.1223719
47	0xbd55862b	-0.052129906
48	0x3c6dd8b6	0.014517
49	0x3d49d2b1	0.049273197
50	0x3df15a3d	0.1178479
51	0xbc1c729d	-0.00954881
52	0xbe10390e	-0.14084265
53	0xbe507446	-0.20356855
54	0x3dcbe38a	0.09955509
55	0x3d91b579	0.07114691
56	0xbeb6a648	-0.35673738
57	0x3c95587a	0.018230665
58	0xbe282af6	-0.16422638
59	0x3e25ad7e	0.16179463
60	0xbdaaa62d	-0.08332477
61	0x3e30a2c4	0.1724959
62	0xbe02ff7e	-0.12792775
63	0xbbfb99d6	-0.007678251
64	0xbe6d0d09	-0.23149504
65	0x3dd4affa	0.10385127
66	0xbc404ba4	-0.011736784
67	0x3d5b1d7b	0.05349491
68	0x3e00ae3c	0.12566465
69	0x3e4d8f92	0.20074299
70	0x3dc5b037	0.09652751
71	0xbbfa6efb	-0.0076426244
72	0x3bfdbf53	0.007743755
73	0xbd43d8e9	-0.047814284
74	0xbe6cb6c6	-0.23116598
75	0xbe1a5acd	-0.150737
76	0xbd84d860	-0.06486583
77	0x3d8753ae	0.066077575
78	0xbe1bae67	-0.15203248
79	0xbd34c11f	-0.044129487
80	0x3c86c43b	0.016450992
81	0xbd494a26	-0.04914298
82	0xbe0e100f	-0.13873313
83	0x3ce3e35a	0.02781837
84	0xbe12a131	-0.14319302
85	0x3d31f4f0	0.04344648
86	0x3daf6213	0.08563628
87	0x3d97bc74	0.074089915
88	0xbd48eb5b	-0.049052577
89	0x3e0f8c0a	0.14018264
90	0x3d01e4d6	0.031712376
91	0xbe1e5ad0	-0.1546433
92	0x3e1314e2	0.14363435
93	0xbdc5ebb3	-0.09664097
94	0xbcc05874	-0.023479678
95	0xbe328668	-0.17434084
96	0xbd1bd017	-0.038040247
97	0xbe72acc4	-0.23698717
98	0x3cba8633	0.02276907
99	0xbe3b6eb6	-0.18303952
100	0x3e642be1	0.22282363
101	0xbc4a9140	-0.012363732
102	0x3ddce8a6	0.10786562
103	0xbe03dfc5	-0.1287833
104	0xbd06aa0c	-0.032877013
105	0x3dda2ee9	0.10653479
106	0x3d1329cd	0.035928536
107	0x3d7ffe6d	0.0624985
108	0x3d1ddefb	0.03854273
109	0xbd365f86	-0.044524692
110	0x3ce4225c	0.027848415
111	0xbca977f1	-0.020687075
112	0xbdd5fc83	-0.104485534
113	0xbe5b2cbf	-0.21403788
114	0xbe6ae982	-0.22940639
115	0xbc308042	-0.010772767
116	0xbcf4c238	-0.029877767
117	0x3c8326e0	0.016009748
118	0x3cb59b71	0.022168847
119	0xbbd4512b	-0.0064794025
120	0xbd12ca61	-0.035837535
121	0xbd023d58	-0.031796783
122	0x3e010fdc	0.12603706
123	0xbe9db7aa	-0.30804187
124	0x3c63ab46	0.013895815
125	0x3d8caba0	0.06868672
126	0xbafac3c6	-0.0019131831
127	0xbd6dd1aa	-0.05806128
128	0xbe6583b6	-0.22413525
129	0xbd0b74ab	-0.03404681
130	0x3dbecd26	0.09316473
131	0x3e3b3783	0.18282895
132	0x3dea8530	0.11451185
133	0x3e19e47a	0.15028563
134	0x3d6c980c	0.05776219
135	0xbc7d80cc	-0.015472602
136	0xbe3e2d6a	-0.18572012
137	0xbb2e7e76	-0.002662567
138	0x3d41fcc7	0.047360208
139	0x3e818ec2	0.25304228
140	0x3df17998	0.1179077
141	0x3df0781e	0.117416605
142	0x3df877d2	0.12132229
143	0xbb711a89	-0.0036789498
144	0xbd231028	-0.03981033
145	0xbe24a40f	-0.16078208
146	0xbe0fd501	-0.14046098
147	0xbd307d19	-0.043088052
148	0xbe11929f	-0.14216088
149	0x3dd917d9	0.10600252
150	0x3e0abe3c	0.13549131
151	0x3d4c9b22	0.049952634
152	0xbe6e4a9a	-0.23270646
153	0xbc98dd47	-0.0186602
154	0x3d673a42	0.056452043
155	0x3e2775ce	0.16353533
156	0xbe4b5984	-0.19858366
157	0x3d5305c6	0.051519178
158	0xbd075cec	-0.0330476
159	0xbd628df9	-0.055311177
160	0x3dfd3bf5	0.123649515
161	0xbd7f85db	-0.062383514
162	0xbb87dd16	-0.0041462285
163	0x3e30f41d	0.17280622
164	0xbe94254c	-0.28934705
165	0xbdb6c0d8	-0.08923501
166	0x3da2f92c	0.07957682
167	0x3d4b5a7e	0.049646847
168	0xbd441746	-0.047873758
169	0xbe33606d	-0.17517252
170	0x3df5f6d0	0.120099664
171	0x3c40b7e2	0.011762591
172	0xbcf7aca2	-0.030233685
173	0xbd50dfd5	-0.050994713
174	0x3de65311	0.112463124
175	0xbdbe5e9f	-0.09295391
176	0xbbcc9363	-0.006243156
177	0xbd79da36	-0.060999118
178	0xbdd42b6d	-0.10359845
179	0xbe4205db	-0.18947546
180	0x3e5c7d05	0.21532066
181	0x3dc94dcc	0.09829292
182	0x3e17c900	0.14822769
183	0x3dba86cb	0.09107741
184	0xbe879161	-0.26478103
185	0xbe625ffb	-0.22106926
186	0x3e3dd058	0.18536508
187	0xbd99eb8f	-0.07515632
188	0x3d05d3a1	0.03267253
189	0x3c3409e0	0.0109886825
190	0xbe0c3ea7	-0.13695775
191	0xbdd2e509	-0.10297591
192	0x3e52a70a	0.20571533
193	0x3d7beadf	0.061503287
194	0x3dcccab2	0.099995986
195	0x3d3589c2	0.04432083
196	0xbd8ea21a	-0.06964512
197	0x3d61b83a	0.055107333
198	0x3e063c12	0.13108853
199	0xbeacd263	-0.33754262
200	0x3d038571	0.03210968
201	0x3bb7bfcc	0.0056075808
202	0x3e18aba3	0.14909224
203	0x3df82c8e	0.12117873
204	0xbd451119	-0.04811201
205	0xbe01a661	-0.12661125
206	0x3d2f0c7a	0.042736508
207	0xbe51a5e5	-0.2047344
208	0x3e074e2b	0.13213412
209	0x3d871788	0.06596285
210	0x39b0ff10	0.00033759372
211	0x3da22525	0.07917241
212	0x3e6d31ff	0.23163603
213	0xbe441faa	-0.19152704
214	0x3dcc5e90	0.09978974
215	0x3de57d89	0.112055846
216	0xbe77146f	-0.24128889
217	0x3d868dff	0.06570052
218	0xbda5eede	-0.08102201
219	0x3d0aa690	0.033850253
220	0x3c6e0de4	0.014529679
221	0xbdbb7643	-0.09153416
222	0xbe40e184	-0.18836027
223	0xbdd8febf	-0.10595464
224	0x3e0a6ac2	0.13517287
225	0x3e71888d	0.23587246
226	0xbd06a0ca	-0.032868184
227	0xbcf403cb	-0.029786965
228	0xbe5f5475	-0.21809562
229	0xbe4d4c35	-0.20048602
230	0x3decdc92	0.11565508
231	0x3baac8b2	0.005211913
232	0xbd78ccfc	-0.060742363
233	0xbe1409b9	-0.14456834
234	0x3e4bb10a	0.19891754
235	0x3da41d30	0.080133796
236	0x3dc92491	0.098214276
237	0x3c10ef82	0.008846166
238	0x3d1a977d	0.037742127
239	0x3cd17a24	0.025570937
240	0x3d7e366f	0.06206363
241	0x3c2e937a	0.010655278
242	0x3d893b77	0.06700795
243	0xbe17188c	-0.14755458
244	0xbc57811d	-0.013153342
245	0xbc1345f6	-0.008988848
246	0xbdad650a	-0.08466537
247	0x3dd2bb92	0.102896824
248	0x3e00e9d6	0.12589201
249	0x3c927e58	0.017882511
250	0x3d74c615	0.05975922
251	0x3d467ba5	0.04845776
252	0xbd409529	-0.04701725
253	0xbcdb3523	-0.026758736
254	0x3c4eb3f6	0.012616148
255	0xbdce45e7	-0.100719266

ffnn.fc3.bias f4 [32]
0	0xbdc57ddf	-0.09643149
1	0x3df8ee63	0.12154844
2	0x3d7bb984	0.06145622
3	0x3dd53412	0.10410322
4	0x3b26f38c	0.0025474755
5	0x3d3c1b5d	0.045924533
6	0xbda26111	-0.0792867
7	0x3d4d4ec8	0.05012396
8	0x3dd6a2cb	0.10480269
9	0x3c73654e	0.014855696
10	0xbdcacbad	-0.09902129
11	0x3de941a5	0.11389474
12	0xbd0aecd8	-0.033917278
13	0xbd9ef4d0	-0.07761538
14	0x3d7a0e9e	0.061049096
15	0x3e271bec	0.16319245
16	0x3dc9b7c0	0.09849501
17	0x3deec1d0	0.116580606
18	0x3dd54475	0.10413448
19	0xbdf1cd68	-0.11806756
20	0x3cd2f15c	0.025749855
21	0x3e09c839	0.13455285
22	0xbde26d46	-0.110559985
23	0x3d3d59e4	0.046228305
24	0x3bb79b0e	0.0056032008
25	0x3ca86774	0.020557143
26	0x3dbf6058	0.09344548
27	0x3cc6a091	0.024246486
28	0xbd9c7e57	-0.07641285
29	0x3a8ba740	0.0010654703
30	0x3d9982d6	0.07495658
31	0xbcf4a6f4	-0.029864766

ffnn.norm2.weight f4 [32]
0	0x3f807d4e	1.003824
1	0x3f85a3bf	1.0440596
2	0x3f829d48	1.0204248
3	0x3f74ca22	0.9562093
4	0x3f700250	0.9375353
5	0x3f8b5a88	1.0887003
6	0x3f8400b0	1.031271
7	0x3f7f5fbb	0.9975545
8	0x3f79a7b5	0.97521526
9	0x3f7c07b3	0.9844925
10	0x3f84c8a1	1.0373727
11	0x3f834801	1.0256349
12	0x3f7ce626	0.9878868
13	0x3f7ab9ee	0.97939956
14	0x3f80fa27	1.007634
15	0x3f6be65e	0.9214839
16	0x3f80ab98	1.0052366
17	0x3f79f7c4	0.97643685
18	0x3f817e9d	1.0116764
19	0x3f8525dd	1.040218
20	0x3f7c4d19	0.9855514
21	0x3f86529d	1.0493962
22	0x3f7d2bd8	0.98895025
23	0x3f7eab48	0.99480104
24	0x3f85671a	1.0422089
25	0x3f713422	0.94220173
26	0x3f73ce8f	0.9523706
27	0x3f76388e	0.96180046
28	0x3f82e41a	1.0225861
29	0x3f82488b	1.0178388
30	0x3f892686	1.0714881
31	0x3f8a5a29	1.0808765

ffnn.norm2.bias f4 [32]
0	0x3c533f70	0.012893543
1	0xbd94cba1	-0.07265402
2	0xba73e6c4	-0.0009304101
3	0x3b47bcd6	0.0030477545
4	0xbcc263cb	-0.023729226
5	0xbd3398e2	-0.043846972
6	0xbd57030e	-0.052493148
7	0xbc967afd	-0.018369192
8	0x3d2d3cb4	0.04229422
9	0xbd10e1f6	-0.035371743
10	0xbd3118f8	-0.043236703
11	0xbd9c39fc	-0.07628247
12	0xbd00bbf3	-0.031429242
13	0x3d230a0a	0.039804496
14	0xbd28a7dd	-0.041175712
15	0xbd1d5417	-0.038410272
16	0xbd71da54	-0.059046105
17	0xbc04fc23	-0.008116755
18	0x3d752bbe	0.05985617
19	0x3c176696	0.009240767
20	0x3d5eb6c3	0.054373514
21	0xbc80527c	-0.015664332
22	0xbd011a5c	-0.03151928
23	0x3dafdb44	0.085867435
24	0xbd7671a7	-0.06016698
25	0xba628a20	-0.0008641798
26	0xbce0b9a4	-0.02743227
27	0x3d1fa5dd	0.03897654
28	0x3b05eda4	0.0020435834
29	0xbcf17bd5	-0.029477993
30	0xbc208ed7	-0.009799681
31	0x3cf986db	0.030459812

ffnn1.fc1.weight f4 [32, 32]
0	0x3d15a832	0.036537357
1	0xbddc2327	-0.10748892
2	0xbe004af2	-0.1252859
3	0x3da4a87f	0.080399506
4	0x3bf3fee5	0.0074461573
5	0x3da0a8da	0.07844706
6	0x3e293dec	0.16527528
7	0x3d1f15f2	0.038839288
8	0xbc9b3a5d	-0.018948728
9	0x3e500947	0.20316039
10	0xbded09a2	-0.11574103
11	0xbdb0db58	-0.086355865
12	0x3e1a5824	0.15072685
13	0xbe50ec74	-0.204027
14	0xbabf27f3	-0.0014584049
15	0x3dd3689b	0.10322686
16	0xbdf3d267	-0.119053654
17	0xbdda1969	-0.10649378
18	0xbdbe0775	-0.09278766
19	0xbd58a59c	-0.052892312
20	0xbd848904	-0.06471446
21	0x3dfb35a4	0.122660905
22	0xbd153136	-0.036423884
23	0x3e00f55d	0.12593599
24	0x3e7bafca	0.24578777
25	0xbe4afff1	-0.19824196
26	0xbdf8d7aa	-0.1215051
27	0x3d44ca98	0.04804477
28	0xbe678baa	-0.22611871
29	0xbdea269c	-0.114331454
30	0xbcabfaa9	-0.020993548
31	0x3e5c94df	0.21541165
32	0x3ce636e3	0.028102344
33	0x3d48a431	0.04898471
34	0x3e4aa8ae	0.19790909
35	0xbd350eaf	-0.044203456
36	0x3e2ac4ff	0.1667671
37	0xbda0c520	-0.078500986
38	0xbe10973c	-0.14120191
39	0xbde01ac4	-0.10942605
40	0x3de89976	0.11357395
41	0xbd812ac5	-0.06306986
42	0xbd138dfc	-0.03602408
43	0xbd5582d4	-0.05212672
44	0xbe1ade4c	-0.15123862
45	0xbd9035ad	-0.07041488
46	0x3e41ba54	0.18918735
47	0xbcfadb92	-0.030622277
48	0xbb841b39	-0.0040315655
49	0xbd963e13	-0.073360585
50	0xbd36a387	-0.044589546
51	0x3d9cd15f	0.07657122
52	0x3d4de84c	0.050270364
53	0xbe384531	-0.17995144
54	0xbe0620c8	-0.13098443
55	0xbdcb4d10	-0.09926808
56	0xbe240a06	-0.16019449
57	0x3e0cf9a1	0.13767101
58	0x3c066739	0.008203321
59	0xbceeedb4	-0.02916608
60	0x3da6b430	0.08139837
61	0x3e0ea7c0	0.13931179
62	0x3d6fc924	0.058541432
63	0x3cf88461	0.03033656
64	0x3d17498c	0.036935374
65	0xbe046a23	-0.12931113
66	0x3e1fb416	0.15596041
67	0x3d433cb9	0.04766533
68	0x39a432d2	0.00031318382
69	0xbd100378	-0.035159558
70	0x3c498865	0.012300585
71	0x3b178979	0.0023122712
72	0xbd758a17	-0.059946146
73	0xbd0c265f	-0.03421628
74	0x3d69d235	0.057085235
75	0xbe211e05	-0.15734108
76	0xbad54d72	-0.0016273691
77	0xbdb008ce	-0.08595429
78	0x3d6884cb	0.056767266
79	0x3e052f22	0.13006261
80	0xbda222f0	-0.0791682
81	0x3debebf3	0.11519613
82	0x3d79c957	0.06098303
83	0x3e303f9c	0.17211765
84	0x3db61963	0.08891561
85	0xbd0ca6ee	-0.034338884
86	0x3cb33ac3	0.021878606
87	0xbd9ef684	-0.07761863
88	0xbe6b5d31	-0.22984768
89	0xbdb163e3	-0.0866163
90	0x3e323485	0.17402847
91	0x3df108c3	0.11769249
92	0xbd35faac	-0.044428512
93	0xbe0e8ff9	-0.13922109
94	0x3dc20219	0.09473056
95	0x3d9ae676	0.07563488
96	0xbe2be6c1	-0.16787244
97	0xbde1c385	-0.110236205
98	0xbcb75ed1	-0.02238408
99	0xbe229e9e	-0.1588082
100	0xbda6ab14	-0.08138099
101	0x3e1df2a4	0.15424591
102	0xbe4894ef	-0.19588064
103	0x3dade224	0.084903985
104	0xbd910ed0	-0.070829034
105	0x3d4e4025	0.05035414
106	0x3dcfc010	0.10144055
107	0x3db89b55	0.09014002
108	0xbe36dcfb	-0.17857735
109	0xbdead8df	-0.11467146
110	0xbc4c1b48	-0.012457676
111	0xbe00402d	-0.12524481
112	0x3e6d4246	0.23169813
113	0xbd1e1a4d	-0.0385993
114	0xbd37c7a8	-0.04486814
115	0x3e159374	0.1460703
116	0xbe144021	-0.14477588
117	0xbb9ca598	-0.0047804825
118	0x3d9b9041	0.075958736
119	0x3de62347	0.11237197
120	0x3dbbd35c	0.09171173
121	0xbd5ac5bc	-0.05341123
122	0xbde28ef6	-0.11062424
123	0x3cc468d3	0.023975765
124	0xbdcee081	-0.101014145
125	0x3e2cde45	0.16881664
126	0x3e8a241d	0.26980677
127	0xbb320d2b	-0.0027168493
128	0xbd7cb10f	-0.061692294
129	0x3e394662	0.18093255
130	0x3e22d13d	0.1590013
131	0xbd9aa51b	-0.075510226
132	0xbde3914c	-0.111116976
133	0x3d759333	0.059954833
134	0x3e634536	0.2219437
135	0x3d41bfbb	0.04730199
136	0xbe21f49b	-0.15815966
137	0x3e71509d	0.23565908
138	0xbd10f249	-0.03538731
139	0x3e20e025	0.15710504
140	0xbdf3d343	-0.11905529
141	0xbe029722	-0.12752965
142	0xbde25744	-0.11051801
143	0x3b94a4cf	0.0045362483
144	0xbde2e5c2	-0.11078979
145	0xbdc6120c	-0.09671411
146	0x3d217064	0.039413825
147	0x3c4746ee	0.012162907
148	0xbd74c3c7	-0.05975702
149	0x3e2feb1e	0.17179534
150	0xbdf2fece	-0.118650064
151	0xbd2a0508	-0.041508704
152	0x3e294d54	0.16533405
153	0x3cf152d0	0.029458433
154	0xbd8fb8d8	-0.07017678
155	0xbda8c1b3	-0.0824007
156	0xbd40b092	-0.04704339
157	0xbe1d35c8	-0.15352547
158	0x3bfe4298	0.0077594034
159	0x3d819edf	0.063291304
160	0x3c1d9967	0.0096190935
161	0xbd059e47	-0.03262165
162	0xbc844e54	-0.016150631
163	0xbdd4eedd	-0.10397122
164	0x3de08ff0	0.10964954
165	0x3e075161	0.13214637
166	0xbd653a2e	-0.055963688
167	0xbe23cc30	-0.1599586
168	0x3d1a0ab0	0.03760785
169	0x3cb07df2	0.02154443
170	0xbc28a18e	-0.010292424
171	0x3de16d01	0.11007119
172	0xbe1031d0	-0.14081502
173	0x3e583bdf	0.21116589
174	0xbe02d182	-0.12775233
175	0x3e047d60	0.12938452
176	0xbdf984fe	-0.12183569
177	0xbcab5537	-0.020914657
178	0xbcfed9e8	-0.031109765
179	0xbd23132e	-0.039813213
180	0xbcdb43ba	-0.026765693
181	0xbdc383cb	-0.09546622
182	0xbe58508d	-0.21124478
183	0x3dce2a28	0.100666344
184	0xbc94ef36	-0.01818047
185	0x3d5ca045	0.053863782
186	0xbd0d36a2	-0.03447593
187	0x3db9ed18	0.09078425
188	0x3e00f798	0.1259445
189	0xbd02993b	-0.031884413
190	0xbc7ecf1c	-0.015552308
191	0xbcc5cce4	-0.024145551
192	0x3dc154ee	0.09440027
193	0xbe538eab	-0.20659892
194	0xbd9cc0fd	-0.07653997
195	0x3d55b270	0.052172124
196	0x3e169ab6	0.14707455
197	0xbe506ba9	-0.20353569
198	0x3d30f200	0.04319954
199	0xbe1c1a92	-0.15244511
200	0xbb4a7ca3	-0.0030897043
201	0xbe6258ac	-0.22104138
202	0xba05d3ea	-0.0005105125
203	0x3aab4c73	0.0013069048
204	0x3d821233	0.063511275
205	0xbda5d5e2	-0.080974355
206	0xbd6199c1	-0.05507827
207	0xbd6bc282	-0.057558544
208	0x3dbcb2d9	0.092138
209	0x3d431081	0.04762316
210	0x3dd2add0	0.10287058
211	0xbcc68823	-0.024234837
212	0x3e2884d1	0.16456915
213	0x3e0b41f9	0.13599385
214	0xbc97ae4d	-0.01851573
215	0x3ca909cf	0.02063456
216	0x3c73405a	0.014846886
217	0x3e01790c	0.12643832
218	0xbdc5b1d0	-0.09653056
219	0x3e02c1da	0.12769261
220	0xbcdaeaf1	-0.026723357
221	0x3d4b7cdc	0.049679622
222	0xbe4581a5	-0.19287737
223	0x3d0b132d	0.033953834
224	0x3cc384af	0.02386698
225	0xbe3fc178	-0.18726146
226	0xbdfb32ce	-0.122655496
227	0xbd389fce	-0.045074277
228	0xbe267397	-0.16255032
229	0x3dc714e8	0.097207844
230	0xbe3364a1	-0.17518856
231	0x3df25905	0.118333854
232	0xbcd8f412	-0.02648357
233	0xbd86fcd2	-0.065911904
234	0x3af37ab2	0.0018575995
235	0xbe0ded2e	-0.13860008
236	0x3db28a90	0.08717835
237	0x3d2489a6	0.040170334
238	0x3d145dcd	0.036222268
239	0x3db00780	0.085951805
240	0x3e27a6de	0.16372249
241	0xbd33f984	-0.04393913
242	0xbd086295	-0.03329714
243	0x3d93884c	0.07203731
244	0xbd9f5acd	-0.07780991
245	0x3d7f573a	0.062339045
246	0x3d23aafc	0.039957985
247	0xbd9196a1	-0.07108808
248	0x3abe5f0a	0.0014524173
249	0xbdf929ea	-0.121661976
250	0xbe2d1b9b	-0.16905062
251	0xbe211123	-0.15729193
252	0x3de4061c	0.11133978
253	0x3c8165c6	0.0157956
254	0x3c942dc8	0.018088236
255	0x3d3989d1	0.045297448

ffnn1.fc1.bias f4 [32]
0	0x3dca9caa	0.098931625
1	0xbd6f5397	-0.058429327
2	0xbe346f15	-0.176205
3	0x3e31de4d	0.17369957
4	0xbb467c6b	-0.0030286561
5	0x3e4996f3	0.19686489
6	0x3d85fe27	0.06542616
7	0x3e3517f4	0.17684919
8	0xbbf52c77	-0.0074821073
9	0xbd3bbc7c	-0.04583405
10	0x3daedcdb	0.085382186
11	0x3d871177	0.06595128
12	0xbe10a291	-0.14124514
13	0xbd90bfce	-0.07067834
14	0x3db2cf02	0.0873089
15	0x3e17f7d4	0.14840633
16	0xbddb3b0a	-0.1070462
17	0xbddcd386	-0.107825324
18	0x3e023e67	0.12719117
19	0x3de25215	0.11050812
20	0x3c8abceb	0.016935786
21	0xbd4f9b7d	-0.050685395
22	0x3e13aa51	0.1442044
23	0x3dac7b31	0.084219344
24	0xbe00b712	-0.12569836
25	0x3d9410c9	0.07229764
26	0x3dc5dfa1	0.096617945
27	0x3cc6db19	0.024274396
28	0x3e239caa	0.15977731
29	0xbe2b0dfc	-0.16704553
30	0x3cde65ff	0.027148245
31	0xbc809713	-0.015697038

ffnn1.norm1.weight f4 [32]
0	0x3f856fb1	1.042471
1	0x3f80fe74	1.0077653
2	0x3f8073b8	1.0035315
3	0x3f82d4f3	1.0221237
4	0x3f85bc99	1.044818
5	0x3f7a703e	0.9782752
6	0x3f7f0970	0.99623775
7	0x3f7487ba	0.955196
8	0x3f7c649b	0.9859101
9	0x3f74a29d	0.9556063
10	0x3f6eba12	0.9325267
11	0x3f829dab	1.0204366
12	0x3f86ed66	1.0541198
13	0x3f8252e2	1.0181544
14	0x3f7808fc	0.9688871
15	0x3f7fd126	0.9992851
16	0x3f769c31	0.9633208
17	0x3f73ba5a	0.95206225
18	0x3f8175c6	1.0114067
19	0x3f6f3b2f	0.9344968
20	0x3f69c0b5	0.9130967
21	0x3f785a3f	0.97012705
22	0x3f8410cb	1.0317625
23	0x3f81b96f	1.0134715
24	0x3f6d742e	0.927554
25	0x3f7f4e93	0.9972927
26	0x3f849710	1.0358601
27	0x3f7aa285	0.97904235
28	0x3f78b904	0.9715731
29	0x3f849773	1.0358719
30	0x3f7b0fcc	0.9807098
31	0x3f80adba	1.0053017

ffnn1.norm1.bias f4 [32]
0	0x3c990bc8	0.018682376
1	0x3e2a48b0	0.1662929
2	0xbe17df29	-0.14831223
3	0xbbbcfe20	-0.0057675987
4	0xbd2cb1fe	-0.042161934
5	0x3e06252b	0.13100116
6	0x3d29e3ee	0.041477136
7	0x3d58be38	0.05291578
8	0x3d2b0b68	0.041758925
9	0x3d6c8ad1	0.057749573
10	0xbd8d44cc	-0.068978876
11	0x3c39e15b	0.011345233
12	0xbe7f9e03	-0.2496262
13	0xbe2ac3f8	-0.16676319
14	0xbc090613	-0.008363265
15	0x3e135411	0.14387538
16	0x3dceb891	0.10093797
17	0xbd15df95	-0.036590178
18	0xbe00fede	-0.12597224
19	0x3d28055a	0.04102073
20	0x3d7d7777	0.06188151
21	0xbdb15abf	-0.086598866
22	0x3e74a2c3	0.23890214
23	0xbaec74a5	-0.0018040134
24	0xbd486776	-0.048926793
25	0x3c8a457b	0.016878834
26	0x3ca2baa3	0.019864386
27	0xbda78560	-0.08179736
28	0x3c70546e	0.014668567
29	0x3e59966a	0.21248785
30	0xbe631d1c	-0.22179073
31	0xbdb3b6a0	-0.08775067

ffnn1.fc2.weight f4 [32, 32]
0	0xbc5a5ef5	-0.013328304
1	0x3d8c1233	0.06839409
2	0xbd3da371	-0.046298448
3	0x3e1ae5aa	0.15126672
4	0xbe0adaa4	-0.13559967
5	0xbd882e44	-0.066494495
6	0xbdf0a989	-0.11751086
7	0x3e326dc2	0.17424682
8	0x3d31e9a0	0.043435693
9	0x3e41ed77	0.18938242
10	0x3bd91c49	0.0066256863
11	0xbe7a1018	-0.24420202
12	0x3d530b27	0.051524308
13	0xbd2de596	-0.04245528
14	0x3d0ddef1	0.03463644
15	0x3ce2e64b	0.027697703
16	0xbe5607d1	-0.20901419
17	0xbdbe91ea	-0.09305175
18	0xbd42c1f7	-0.04754826
19	0xbe0cb15e	-0.13739535
20	0xbde41026	-0.111358926
21	0xbd8679ea	-0.06566222
22	0x3dd8049e	0.10547756
23	0x3df17737	0.117903166
24	0xbe2324d0	-0.15932012
25	0xbd748549	-0.059697423
26	0x3d0fbe91	0.035093848
27	0xbd8716a6	-0.06596117
28	0x3e057cf8	0.13035953
29	0xbd86a73d	-0.06574867
30	0xbe2f064d	-0.17092247
31	0x3e433d73	0.1906641
32	0xbe29c224	-0.16577965
33	0xbd481510	-0.04884821
34	0xbd59b9f8	-0.05315587
35	0x3d98b1f7	0.07455819
36	0x3d751471	0.059833948
37	0x3ccfc313	0.025361573
38	0xbe3925cc	-0.18080825
39	0xbdd075fb	-0.10178753
40	0x3dfcc047	0.123413615
41	0xbde2a192	-0.11065973
42	0xbd702afe	-0.05863475
43	0x3dc5c26a	0.09656222
44	0x3dc3991e	0.09550689
45	0x3e19f957	0.15036522
46	0xbddb2745	-0.107008494
47	0x3d95cb52	0.07314171
48	0x3e02671c	0.12734646
49	0xbddcf85c	-0.10789558
50	0xbdd9f018	-0.106414974
51	0x3df04c43	0.11733296
52	0x3e53ecdb	0.20695822
53	0xbdcee91a	-0.10103054
54	0x3d8b9d8c	0.06817159
55	0x3e0ef0d7	0.1395906
56	0x3c4d5ae4	0.012533877
57	0x3d9e0997	0.07716673
58	0xbd0deea1	-0.034651402
59	0x3dc6fc49	0.09716088
60	0xbe01eee0	-0.1268878
61	0x3c590a1c	0.013247039
62	0xbb9e8cdc	-0.004838569
63	0x3c22261c	0.009896781
64	0x3e70b675	0.23507102
65	0xbe58931c	-0.21149868
66	0xbd5288d0	-0.051400006
67	0x3e3282bc	0.17432684
68	0xbdf8bbcd	-0.12145195
69	0xbe3a8317	-0.1821407
70	0xbbfebcb9	-0.0077739623
71	0x3e622b80	0.22086906
72	0xbc6bb30a	-0.014385948
73	0x3d20c4cc	0.03925018
74	0xbde5de60	-0.11224055
75	0xbe097064	-0.1342178
76	0xbdd11042	-0.10208179
77	0x3d8badce	0.0682026
78	0x3e4fd1a8	0.20294821
79	0xbdc24881	-0.09486485
80	0xbdbba98f	-0.091632
81	0x3d209fa8	0.03921476
82	0x3d29c1da	0.041444637
83	0xbdfb45fa	-0.12269206
84	0x3d996a27	0.0749095
85	0xbdcea88b	-0.10090741
86	0x3e155a3a	0.145852
87	0xbc65e4b0	-0.014031574
88	0xbc8d4d02	-0.017248634
89	0x3d95d362	0.07315709
90	0xbdf795c2	-0.12089111
91	0xbe4ad8cc	-0.19809264
92	0x3e1fdeda	0.15612355
93	0xbe23d72e	-0.16000053
94	0xbd4b8f93	-0.04969747
95	0x3d86388b	0.065537535
96	0xbdaede35	-0.085384764
97	0x3b9b5cc7	0.0047412845
98	0xbdf74148	-0.12072998
99	0xbdebe80a	-0.11518867
100	0x3db7d263	0.08975675
101	0x3d6bfe0a	0.057615317
102	0xbda0b760	-0.07847476
103	0xbe3afcb9	-0.18260469
104	0x3dec5bf8	0.11540979
105	0x3dd280d2	0.10278477
106	0xbcc4086d	-0.023929799
107	0x3e0d70fa	0.13812628
108	0xbd5834e5	-0.05278482
109	0x3de9ea10	0.11421597
110	0x3db15b46	0.08659987
111	0xbe02fd29	-0.12791885
112	0x3dbe4d75	0.092921175
113	0xbc5c4740	-0.013444722
114	0xbd8f5f55	-0.07000605
115	0x3d566620	0.052343488
116	0xbe3377db	-0.1752619
117	0x3e0637a9	0.1310717
118	0x3ddbbe2d	0.107296325
119	0x3933df06	0.00017153853
120	0x3d46e0a7	0.04855409
121	0xbe66a539	-0.22523965
122	0x3c163af6	0.009169331
123	0xbe08036a	-0.13282552
124	0xbc0af402	-0.008481028
125	0xbda29900	-0.07939339
126	0xbda75f4c	-0.08172473
127	0xbd8f8396	-0.0700752
128	0xbe79a9e4	-0.24381214
129	0xbda80b97	-0.082053356
130	0xbdb62499	-0.08893699
131	0x3e122a82	0.14274028
132	0xbdd59b30	-0.1042999
133	0xbd26405e	-0.04058873
134	0xbd295548	-0.041341096
135	0xbe2881ef	-0.16455816
136	0x3db628a8	0.08894473
137	0xbe2b9376	-0.1675547
138	0x3cf1977d	0.02949118
139	0xbc9a3ecc	-0.018828772
140	0x3d851c32	0.064995185
141	0x3e455716	0.19271502
142	0x3e0b610c	0.13611239
143	0x3db4c353	0.08826318
144	0xbcb5a196	-0.022171777
145	0xbe42c4c8	-0.19020379
146	0xbda37ca6	-0.07982759
147	0xbdc48352	-0.0959536
148	0x3d4b1758	0.04958281
149	0xbe2cf41f	-0.1689
150	0xbd035e7c	-0.03207253
151	0x3de6d4f9	0.1127109
152	0xbd019835	-0.031639297
153	0xbaa8815c	-0.0012855935
154	0x3e365c5c	0.1780867
155	0xbdea70dc	-0.114473075
156	0xbe47c7ff	-0.19509886
157	0x3dea1d86	0.114314124
158	0x3e28fd6d	0.16502924
159	0x3d2c2754	0.042029694
160	0xbe05c914	-0.13064986
161	0x3d1e44f7	0.03863999
162	0x3d829a8f	0.06377136
163	0xbdb8bb85	-0.090201415
164	0xbe198584	-0.14992338
165	0xbc93e213	-0.018052137
166	0x3d99c164	0.075075895
167	0x3ca1c2ee	0.01974627
168	0x3dfac496	0.12244527
169	0x3e38e8b3	0.18057518
170	0xbc257d08	-0.010100611
171	0xbe0177ae	-0.1264331
172	0xbd95c852	-0.07313599
173	0xbd8d58b1	-0.06901682
174	0x3df71ab0	0.12065637
175	0xbd89044a	-0.06690271
176	0xbe1a8c01	-0.1509247
177	0xbc21bc90	-0.009871617
178	0xbe1b6d79	-0.15178479
179	0x3d063c52	0.03277237
180	0xbd8ce00b	-0.0687867
181	0xbd8a71de	-0.0676
182	0x3dcbc964	0.099505216
183	0x3c159a32	0.009131001
184	0xbcdfbfab	-0.027313074
185	0x3e2b9737	0.16756903
186	0xbe04dccc	-0.12974852
187	0x3d1eddb6	0.03878566
188	0x3d7998bc	0.060936674
189	0xbe585a5f	-0.21128224
190	0x3d2e945c	0.042621955
191	0xbdb687e5	-0.089126386
192	0xbd1fdc9a	-0.03902874
193	0xbda530a0	-0.08065915
194	0xbe3f8ea6	-0.1870676
195	0x3dd9376f	0.10606276
196	0x3de56a06	0.11201863
197	0x3d8e2dd7	0.06942337
198	0xbde9d64c	-0.11417827
199	0x3df5dd97	0.120051555
200	0xbc88911d	-0.016670758
201	0xbdc77407	-0.09738927
202	0xbde32fc8	-0.11093098
203	0x3c36721f	0.011135607
204	0xbe1b1bae	-0.15147278
205	0xbd448f1e	-0.04798805
206	0xbe044ae4	-0.12919194
207	0xbce17297	-0.027520461
208	0xbe0b0f7c	-0.13580126
209	0xbd8439e4	-0.06456354
210	0xbe3f4713	-0.18679456
211	0xbddb78f4	-0.10716429
212	0x3e16d46b	0.14729469
213	0xbd73c80e	-0.05951696
214	0xbd9c23b2	-0.07623996
215	0x3e352103	0.17688374
216	0x3cb32d79	0.021872269
217	0xbe0868a8	-0.13321173
218	0xbe20a715	-0.15688737
219	0x3d1105cb	0.035405915
220	0xbde453c9	-0.11148793
221	0x3caff548	0.021479264
222	0xbe34678c	-0.17617625
223	0xbe305e6f	-0.17223524
224	0xbd2fb2dd	-0.042895187
225	0x3b9a1638	0.0047023557
226	0x3dfdf1e2	0.12399651
227	0xbd3203be	-0.0434606
228	0xbe9966fb	-0.2996138
229	0x3e0629a7	0.13101827
230	0x3a7f3424	0.00097352476
231	0x3e3296ef	0.17440389
232	0xbd9371f5	-0.0719947
233	0xbd96d8ec	-0.07365593
234	0xbdb90de1	-0.0903585
235	0xbd4da5d2	-0.050206967
236	0x3d097d57	0.0335668
237	0x3d68cd7a	0.056836583
238	0x3dd41ea5	0.103574075
239	0xbd5cd13d	-0.053910483
240	0x3e7d2096	0.24719462
241	0x3dd35989	0.10319812
242	0xbcaa6b30	-0.020803064
243	0xbde142d4	-0.109990746
244	0x3ce1f3ad	0.027582014
245	0x3e2c38ec	0.16818589
246	0x3bbe5d9a	0.005809498
247	0x3d1111f3	0.03541751
248	0x3d79321a	0.060838796
249	0x3e3fb0ae	0.18719742
250	0xbe2dbc81	-0.1696644
251	0xbdf10b19	-0.11769695
252	0x3d8553c0	0.06510115
253	0xbd4b1ced	-0.049588133
254	0x3dba2345	0.090887584
255	0xbc1ac80d	-0.00944711

ffnn1.fc2.bias f4 [32]
0	0xbe055c2e	-0.13023445
1	0x3e1386f4	0.1440695
2	0x3caa34dc	0.020777158
3	0xbafb1f42	-0.0019159096
4	0xbe009f39	-0.12560739
5	0xbdaf7f8b	-0.08569249
6	0xbe3a331b	-0.18183558
7	0x3dc687a4	0.0969384
8	0xbd587fcf	-0.052856263
9	0xbc2d864d	-0.010591102
10	0x3d819523	0.06327274
11	0xbc08328b	-0.008312832
12	0x3cdc8771	0.026920052
13	0xbd4d68e1	-0.05014885
14	0xbdac0c43	-0.08400776
15	0xbc742f88	-0.01490391
16	0x3dcb9891	0.09941209
17	0xbe252805	-0.16128547
18	0x3b1fa737	0.0024361142
19	0xbd856515	-0.065134205
20	0x3d4f883a	0.050667025
21	0xbdd3f844	-0.10350087
22	0x3dd7959a	0.10526581
23	0x3e26f31b	0.16303675
24	0xbe2e0f7f	-0.16998099
25	0x3d095eca	0.033537664
26	0xbe3a1c07	-0.18174754
27	0x3d531f32	0.051543422
28	0x3e181093	0.14850073
29	0xbd905895	-0.07048146
30	0x3db52f8f	0.08846962
31	0xbdd3040f	-0.103035085

ffnn1.fc3.weight f4 [32, 32]
0	0xbde08cc8	-0.10964352
1	0x3d27e097	0.04098567
2	0xbe16abd0	-0.14713979
3	0xbcac1b65	-0.021009156
4	0x3e106f11	0.14104868
5	0x3dc472a4	0.095921785
6	0x3dffae84	0.12484458
7	0xbd7bfbd3	-0.061519455
8	0x3e0eb705	0.13937004
9	0x3d84ba8d	0.06480894
10	0x3dbc5b7d	0.091971375
11	0x3e04e3fb	0.12977593
12	0xbe130276	-0.14356408
13	0xbda9f5a3	-0.082988046
14	0xbb68ce74	-0.0035523446
15	0xbc8bdb69	-0.017072396
16	0x3e3173d5	0.17329343
17	0x3e7ae94a	0.24503055
18	0xbc3bab38	-0.011454396
19	0x3d98afb1	0.074553855
20	0x3d09d21f	0.033647653
21	0xbe04a4fc	-0.12953562
22	0xbe8de113	-0.2771078
23	0x3dc6af10	0.09701359
24	0x3cd48244	0.025941022
25	0x3c61e816	0.013788244
26	0x3e01eb08	0.12687314
27	0x3bcefed6	0.006317
28	0xbdf07392	-0.11740793
29	0xbbb168f5	-0.005414123
30	0xbd209023	-0.03919996
31	0xbd5a3bb3	-0.05327959
32	0xbd81bc98	-0.063347995
33	0xbdcd11f6	-0.100131914
34	0x3dc135c3	0.09434082
35	0x3e037624	0.12838036
36	0xbd87fcf0	-0.06640041
37	0x3ddd0175	0.107912935
38	0x3e019d49	0.12657656
39	0xbaa0a64f	-0.0012256595
40	0x3c56b990	0.013105765
41	0x3e018381	0.12647821
42	0xbe10d36d	-0.14143153
43	0x3e4c3cf6	0.1994513
44	0x3e3a6a44	0.182046
45	0x3e567478	0.20942867
46	0x3e427d19	0.18993033
47	0x3c06b71e	0.0082223695
48	0xbd93713a	-0.07199331
49	0xbcecf559	-0.028925585
50	0xbdb31af1	-0.08745373
51	0xbc3ccef8	-0.011523955
52	0xbd8b3ca2	-0.06798674
53	0x3e4c57e4	0.19955403
54	0x3dc194bd	0.09452198
55	0xbc28dfab	-0.010307233
56	0x3d9d883c	0.07692
57	0x3db7b0f8	0.08969301
58	0x3d9ea6bf	0.07746648
59	0x3e136b17	0.1439632
60	0x3e42e9d2	0.19034508
61	0xbc96182a	-0.01832207
62	0x3e31b4ac	0.17354077
63	0x3c6b526a	0.014362911
64	0xbe01fa4d	-0.12693138
65	0x3ddfc8da	0.10926981
66	0xbe2486f3	-0.16067104
67	0xbb80bcf5	-0.0039287754
68	0x3d0a08b5	0.03369971
69	0xbe2d4227	-0.16919766
70	0x3d09850f	0.03357416
71	0x3e46d179	0.19415845
72	0xbe583137	-0.21112524
73	0x3d0110c6	0.031510137
74	0x3dcd5fde	0.10028051
75	0x3db62280	0.08893299
76	0xbbe30922	-0.006928579
77	0x3c331f26	0.010932719
78	0x3e0a0d56	0.1348165
79	0xbe1f10fd	-0.15533824
80	0xbd8640a6	-0.065552995
81	0xbe090d56	-0.13383994
82	0xbe038a2d	-0.12845679
83	0xbdea5fd9	-0.11444063
84	0xbe992110	-0.29908037
85	0xbe11290d	-0.14175816
86	0x3c04f7e0	0.008115739
87	0xbd709bac	-0.05874221
88	0xbdeff8d5	-0.11717383
89	0x3e2e0e8b	0.16997735
90	0xbdc37ea5	-0.0954564
91	0xbe036cce	-0.12834474
92	0xbd980fa4	-0.07424858
93	0xbd72e581	-0.059300903
94	0xbe33d4c3	-0.17561631
95	0x3b3c3d87	0.0028723197
96	0xbbebbcf9	-0.007194158
97	0xbce6bb7c	-0.028165571
98	0x3d3b6d35	0.045758445
99	0xbcc7a2e6	-0.024369668
100	0x3de5e6e6	0.11225681
101	0xbe42e66d	-0.19033213
102	0x3dfed924	0.1244376
103	0x3dffd466	0.12491684
104	0xbd2d5495	-0.04231699
105	0x3dc35b0b	0.095388494
106	0x3e0b02ab	0.13575236
107	0xbdd586f5	-0.10426132
108	0x3d4a3326	0.049365185
109	0xbdff0775	-0.12452594
110	0xbcac19b0	-0.021008343
111	0x3d0280c5	0.031861085
112	0xbe0547ab	-0.1301562
113	0xbdb3a621	-0.08771921
114	0xbe2f41ff	-0.1711502
115	0xbc6a10f2	-0.014286267
116	0x3d1c9857	0.03823122
117	0xbda7ff65	-0.082030095
118	0x3e44ec58	0.19230783
119	0x3c9affb5	0.018920759
120	0x3d6c8619	0.057745073
121	0xbe37d4c4	-0.17952257
122	0x3dd68409	0.104744025
123	0x3c08d45e	0.0083514135
124	0xbd536a66	-0.05161514
125	0xbe0da349	-0.1383182
126	0xbd180a56	-0.037119232
127	0xbd30d503	-0.043171894
128	0x3d09e9eb	0.033670347
129	0x3e14fabf	0.14548777
130	0xbe231104	-0.1592446
131	0xbdb85305	-0.0900021
132	0x3e093169	0.13397755
133	0x3db19a01	0.08671952
134	0x3d96f93c	0.073717564
135	0xbe214b38	-0.1575135
136	0x3e41c111	0.18921305
137	0x3c7e703c	0.015529688
138	0xbe6fa9b5	-0.23404582
139	0xbe015864	-0.12631375
140	0xbd84c486	-0.06482796
141	0xbdf6a529	-0.120432205
142	0x3e42ba29	0.19016327
143	0x3cd42974	0.025898673
144	0xbe4507e5	-0.19241293
145	0x3d8d5793	0.06901469
146	0xbd314c17	-0.043285456
147	0xbd9d459b	-0.07679292
148	0x3cde58a6	0.02714188
149	0x3dd17803	0.102279685
150	0xbe017ba0	-0.12644815
151	0xbdd4de7f	-0.10394
152	0xbd9d7388	-0.076880515
153	0xbdd478dc	-0.103746146
154	0xbe92a135	-0.28638616
155	0x3d22c106	0.039734863
156	0xbe380b20	-0.17972994
157	0xbe169b75	-0.1470774
158	0x3dc30bff	0.095237724
159	0xbe2abfe2	-0.1667476
160	0x3e60c1b8	0.21948898
161	0x3e2d9efb	0.16955177
162	0x3e828aa0	0.25496387
163	0x3ba9f387	0.0051865014
164	0xbd5fde5a	-0.05465541
165	0xbaf3c8ae	-0.0018599236
166	0xbc9c46f0	-0.019076794
167	0xbc9babec	-0.019002877
168	0xbde96946	-0.113970324
169	0xbcd8a5a2	-0.026446167
170	0xbd9948da	-0.074845985
171	0x3d3792ce	0.04481774
172	0x3d685bce	0.056728177
173	0x3dc1706e	0.094452724
174	0xbd356c97	-0.044293012
175	0xbdcb936f	-0.0994023
176	0xbd6b9651	-0.0575164
177	0x3e3b1fe7	0.18273889
178	0x3e220860	0.15823507
179	0xbb92b706	-0.0044773845
180	0xbdfdb8c3	-0.12388756
181	0x3df74dcd	0.12075386
182	0xbd085f94	-0.033294275
183	0x3c2be9c5	0.010492747
184	0x3d047d27	0.032345917
185	0xbcdcb17c	-0.0269401
186	0xbd37dd0a	-0.044888534
187	0xbdf89aef	-0.12138926
188	0x3e19a186	0.15003023
189	0x3e3312d1	0.17487647
190	0x3e2e3a35	0.17014392
191	0xbc96d7de	-0.01841348
192	0xb8310279	-4.220239e-05
193	0x3dc9e4ef	0.09858119
194	0x3d0c2377	0.03421351
195	0xbb9d7238	-0.0048048757
196	0x3d697641	0.05699754
197	0x3cc24c4a	0.023718018
198	0xbdd2c967	-0.10292321
199	0x3e623b2c	0.22092885
200	0xbc8d7edb	-0.017272403
201	0xbd1130aa	-0.0354468
202	0x3e679122	0.22613958
203	0x3e3b0fd1	0.18267752
204	0x3e00da6f	0.12583326
205	0x3d1bfc56	0.038082443
206	0xbddab0ad	-0.106782295
207	0x3d32d372	0.04365868
208	0x3e11127a	0.14167204
209	0xbe0386b3	-0.12844352
210	0x3e4809e6	0.19535026
211	0x3e550643	0.2080317
212	0xbd517c5c	-0.05114399
213	0xbd751b61	-0.059840564
214	0x3cff0323	0.031129425
215	0x3e8290d8	0.25501132
216	0x3cf2197d	0.02955317
217	0x3e5269f8	0.20548236
218	0xbc833988	-0.016018644
219	0xbdfa4514	-0.12220207
220	0x3d18b31d	0.03728019
221	0x3e2fc861	0.17166282
222	0x3dcf55b3	0.10123768
223	0x3e65fe98	0.22460401
224	0xbd808c0b	-0.06276711
225	0x3c2b8af0	0.010470137
226	0x3c130fde	0.008975951
227	0xbd19d652	-0.037557907
228	0x3e316223	0.17322592
229	0x3e1f9a91	0.15586306
230	0x3d7dd780	0.061973095
231	0x3e298340	0.16553974
232	0x3e0ed8d4	0.13949901
233	0xbce92e21	-0.028464379
234	0x3cfe97f8	0.031078324
235	0x3e0b9b89	0.1363355
236	0xbdc2e104	-0.095155746
237	0xbc25d2a6	-0.010121023
238	0xbc66076d	-0.014039856
239	0x3cd8a1c4	0.026444323
240	0xbc043c3d	-0.008071003
241	0xba538886	-0.0008069355
242	0x3d977ca4	0.0739682
243	0x3e35993a	0.17734233
244	0xbb33e0ca	-0.0027447217
245	0xbdae12f0	-0.08499706
246	0x3deb6369	0.1149357
247	0x3ba1db67	0.004939485
248	0x3c30765f	0.010770409
249	0x3ccc6593	0.024950778
250	0x3dca30a2	0.09872557
251	0x3da26961	0.07930256
252	0x3d16f664	0.03685607
253	0xbcc08163	-0.023499196
254	0x3d063608	0.032766372
255	0xbd14cbc4	-0.03632714
